…
05/16/2020 11:47:11 INFO     Creating new 'dfl_h128' model in folder: '/tmp/chuan/faceswap/model_benchmark'
05/16/2020 11:47:13 VERBOSE  [Dfl_H128 A Summary]:
05/16/2020 11:47:13 VERBOSE  __________________________________________________________________________________________________
05/16/2020 11:47:13 VERBOSE  Layer (type)                    Output Shape         Param #     Connected to                     
05/16/2020 11:47:13 VERBOSE  ==================================================================================================
05/16/2020 11:47:13 VERBOSE  face_in (InputLayer)            (None, 128, 128, 3)  0                                            
05/16/2020 11:47:13 VERBOSE  __________________________________________________________________________________________________
05/16/2020 11:47:13 VERBOSE  mask_in (InputLayer)            (None, 128, 128, 1)  0                                            
05/16/2020 11:47:13 VERBOSE  __________________________________________________________________________________________________
05/16/2020 11:47:13 VERBOSE  lambda_1 (Lambda)               (None, 128, 128, 3)  0           face_in[0][0]                    
05/16/2020 11:47:13 VERBOSE  __________________________________________________________________________________________________
05/16/2020 11:47:13 VERBOSE  lambda_2 (Lambda)               (None, 128, 128, 1)  0           mask_in[0][0]                    
05/16/2020 11:47:13 VERBOSE  __________________________________________________________________________________________________
05/16/2020 11:47:13 VERBOSE  lambda_3 (Lambda)               (None, 128, 128, 3)  0           face_in[0][0]                    
05/16/2020 11:47:13 VERBOSE  __________________________________________________________________________________________________
05/16/2020 11:47:13 VERBOSE  lambda_4 (Lambda)               (None, 128, 128, 1)  0           mask_in[0][0]                    
05/16/2020 11:47:13 VERBOSE  __________________________________________________________________________________________________
05/16/2020 11:47:13 VERBOSE  lambda_5 (Lambda)               (None, 128, 128, 3)  0           face_in[0][0]                    
05/16/2020 11:47:13 VERBOSE  __________________________________________________________________________________________________
05/16/2020 11:47:13 VERBOSE  lambda_6 (Lambda)               (None, 128, 128, 1)  0           mask_in[0][0]                    
05/16/2020 11:47:13 VERBOSE  __________________________________________________________________________________________________
05/16/2020 11:47:13 VERBOSE  lambda_7 (Lambda)               (None, 128, 128, 3)  0           face_in[0][0]                    
05/16/2020 11:47:13 VERBOSE  __________________________________________________________________________________________________
05/16/2020 11:47:13 VERBOSE  lambda_8 (Lambda)               (None, 128, 128, 1)  0           mask_in[0][0]                    
05/16/2020 11:47:13 VERBOSE  __________________________________________________________________________________________________
05/16/2020 11:47:13 VERBOSE  lambda_9 (Lambda)               (None, 128, 128, 3)  0           face_in[0][0]                    
05/16/2020 11:47:13 VERBOSE  __________________________________________________________________________________________________
05/16/2020 11:47:13 VERBOSE  lambda_10 (Lambda)              (None, 128, 128, 1)  0           mask_in[0][0]                    
05/16/2020 11:47:13 VERBOSE  __________________________________________________________________________________________________
05/16/2020 11:47:13 VERBOSE  lambda_11 (Lambda)              (None, 128, 128, 3)  0           face_in[0][0]                    
05/16/2020 11:47:13 VERBOSE  __________________________________________________________________________________________________
05/16/2020 11:47:13 VERBOSE  lambda_12 (Lambda)              (None, 128, 128, 1)  0           mask_in[0][0]                    
05/16/2020 11:47:13 VERBOSE  __________________________________________________________________________________________________
05/16/2020 11:47:13 VERBOSE  lambda_13 (Lambda)              (None, 128, 128, 3)  0           face_in[0][0]                    
05/16/2020 11:47:13 VERBOSE  __________________________________________________________________________________________________
05/16/2020 11:47:13 VERBOSE  lambda_14 (Lambda)              (None, 128, 128, 1)  0           mask_in[0][0]                    
05/16/2020 11:47:13 VERBOSE  __________________________________________________________________________________________________
05/16/2020 11:47:13 VERBOSE  lambda_15 (Lambda)              (None, 128, 128, 3)  0           face_in[0][0]                    
05/16/2020 11:47:13 VERBOSE  __________________________________________________________________________________________________
05/16/2020 11:47:13 VERBOSE  lambda_16 (Lambda)              (None, 128, 128, 1)  0           mask_in[0][0]                    
05/16/2020 11:47:13 VERBOSE  __________________________________________________________________________________________________
05/16/2020 11:47:13 VERBOSE  lambda_17 (Lambda)              (None, 128, 128, 3)  0           face_in[0][0]                    
05/16/2020 11:47:13 VERBOSE  __________________________________________________________________________________________________
05/16/2020 11:47:13 VERBOSE  lambda_18 (Lambda)              (None, 128, 128, 1)  0           mask_in[0][0]                    
05/16/2020 11:47:13 VERBOSE  __________________________________________________________________________________________________
05/16/2020 11:47:13 VERBOSE  lambda_19 (Lambda)              (None, 128, 128, 3)  0           face_in[0][0]                    
05/16/2020 11:47:13 VERBOSE  __________________________________________________________________________________________________
05/16/2020 11:47:13 VERBOSE  lambda_20 (Lambda)              (None, 128, 128, 1)  0           mask_in[0][0]                    
05/16/2020 11:47:13 VERBOSE  __________________________________________________________________________________________________
05/16/2020 11:47:13 VERBOSE  lambda_21 (Lambda)              (None, 128, 128, 3)  0           face_in[0][0]                    
05/16/2020 11:47:13 VERBOSE  __________________________________________________________________________________________________
05/16/2020 11:47:13 VERBOSE  lambda_22 (Lambda)              (None, 128, 128, 1)  0           mask_in[0][0]                    
05/16/2020 11:47:13 VERBOSE  __________________________________________________________________________________________________
05/16/2020 11:47:13 VERBOSE  lambda_23 (Lambda)              (None, 128, 128, 3)  0           face_in[0][0]                    
05/16/2020 11:47:13 VERBOSE  __________________________________________________________________________________________________
05/16/2020 11:47:13 VERBOSE  lambda_24 (Lambda)              (None, 128, 128, 1)  0           mask_in[0][0]                    
05/16/2020 11:47:13 VERBOSE  __________________________________________________________________________________________________
05/16/2020 11:47:13 VERBOSE  lambda_25 (Lambda)              (None, 128, 128, 3)  0           face_in[0][0]                    
05/16/2020 11:47:13 VERBOSE  __________________________________________________________________________________________________
05/16/2020 11:47:13 VERBOSE  lambda_26 (Lambda)              (None, 128, 128, 1)  0           mask_in[0][0]                    
05/16/2020 11:47:13 VERBOSE  __________________________________________________________________________________________________
05/16/2020 11:47:13 VERBOSE  lambda_27 (Lambda)              (None, 128, 128, 3)  0           face_in[0][0]                    
05/16/2020 11:47:13 VERBOSE  __________________________________________________________________________________________________
05/16/2020 11:47:13 VERBOSE  lambda_28 (Lambda)              (None, 128, 128, 1)  0           mask_in[0][0]                    
05/16/2020 11:47:13 VERBOSE  __________________________________________________________________________________________________
05/16/2020 11:47:13 VERBOSE  lambda_29 (Lambda)              (None, 128, 128, 3)  0           face_in[0][0]                    
05/16/2020 11:47:13 VERBOSE  __________________________________________________________________________________________________
05/16/2020 11:47:13 VERBOSE  lambda_30 (Lambda)              (None, 128, 128, 1)  0           mask_in[0][0]                    
05/16/2020 11:47:13 VERBOSE  __________________________________________________________________________________________________
05/16/2020 11:47:13 VERBOSE  lambda_31 (Lambda)              (None, 128, 128, 3)  0           face_in[0][0]                    
05/16/2020 11:47:13 VERBOSE  __________________________________________________________________________________________________
05/16/2020 11:47:13 VERBOSE  lambda_32 (Lambda)              (None, 128, 128, 1)  0           mask_in[0][0]                    
05/16/2020 11:47:13 VERBOSE  __________________________________________________________________________________________________
05/16/2020 11:47:13 VERBOSE  model_4 (Model)                 [(None, 128, 128, 3) 107709700   lambda_1[0][0]                   
05/16/2020 11:47:13 VERBOSE                                                                   lambda_2[0][0]                   
05/16/2020 11:47:13 VERBOSE                                                                   lambda_3[0][0]                   
05/16/2020 11:47:13 VERBOSE                                                                   lambda_4[0][0]                   
…
05/16/2020 11:47:13 VERBOSE  __________________________________________________________________________________________________
05/16/2020 11:47:13 VERBOSE  Decoder_A:
05/16/2020 11:47:13 VERBOSE  __________________________________________________________________________________________________
05/16/2020 11:47:13 VERBOSE  Layer (type)                    Output Shape         Param #     Connected to                     
05/16/2020 11:47:13 VERBOSE  ==================================================================================================
05/16/2020 11:47:13 VERBOSE  input_1 (InputLayer)            (None, 16, 16, 512)  0                                            
05/16/2020 11:47:13 VERBOSE  __________________________________________________________________________________________________
05/16/2020 11:47:13 VERBOSE  upscale_16_0_conv2d (Conv2D)    (None, 16, 16, 2048) 9439232     input_1[0][0]                    
05/16/2020 11:47:13 VERBOSE  __________________________________________________________________________________________________
05/16/2020 11:47:13 VERBOSE  upscale_16_1_conv2d (Conv2D)    (None, 16, 16, 2048) 9439232     input_1[0][0]                    
05/16/2020 11:47:13 VERBOSE  __________________________________________________________________________________________________
05/16/2020 11:47:13 VERBOSE  upscale_16_0_leakyrelu (LeakyRe (None, 16, 16, 2048) 0           upscale_16_0_conv2d[0][0]        
05/16/2020 11:47:13 VERBOSE  __________________________________________________________________________________________________
05/16/2020 11:47:13 VERBOSE  upscale_16_1_leakyrelu (LeakyRe (None, 16, 16, 2048) 0           upscale_16_1_conv2d[0][0]        
05/16/2020 11:47:13 VERBOSE  __________________________________________________________________________________________________
05/16/2020 11:47:13 VERBOSE  upscale_16_0_pixelshuffler (Pix (None, 32, 32, 512)  0           upscale_16_0_leakyrelu[0][0]     
05/16/2020 11:47:13 VERBOSE  __________________________________________________________________________________________________
05/16/2020 11:47:13 VERBOSE  upscale_16_1_pixelshuffler (Pix (None, 32, 32, 512)  0           upscale_16_1_leakyrelu[0][0]     
05/16/2020 11:47:13 VERBOSE  __________________________________________________________________________________________________
05/16/2020 11:47:13 VERBOSE  upscale_32_0_conv2d (Conv2D)    (None, 32, 32, 1024) 4719616     upscale_16_0_pixelshuffler[0][0] 
05/16/2020 11:47:13 VERBOSE  __________________________________________________________________________________________________
05/16/2020 11:47:13 VERBOSE  upscale_32_1_conv2d (Conv2D)    (None, 32, 32, 1024) 4719616     upscale_16_1_pixelshuffler[0][0] 
05/16/2020 11:47:13 VERBOSE  __________________________________________________________________________________________________
05/16/2020 11:47:13 VERBOSE  upscale_32_0_leakyrelu (LeakyRe (None, 32, 32, 1024) 0           upscale_32_0_conv2d[0][0]        
05/16/2020 11:47:13 VERBOSE  __________________________________________________________________________________________________
05/16/2020 11:47:13 VERBOSE  upscale_32_1_leakyrelu (LeakyRe (None, 32, 32, 1024) 0           upscale_32_1_conv2d[0][0]        
05/16/2020 11:47:13 VERBOSE  __________________________________________________________________________________________________
05/16/2020 11:47:13 VERBOSE  upscale_32_0_pixelshuffler (Pix (None, 64, 64, 256)  0           upscale_32_0_leakyrelu[0][0]     
05/16/2020 11:47:13 VERBOSE  __________________________________________________________________________________________________
05/16/2020 11:47:13 VERBOSE  upscale_32_1_pixelshuffler (Pix (None, 64, 64, 256)  0           upscale_32_1_leakyrelu[0][0]     
05/16/2020 11:47:13 VERBOSE  __________________________________________________________________________________________________
05/16/2020 11:47:13 VERBOSE  upscale_64_0_conv2d (Conv2D)    (None, 64, 64, 512)  1180160     upscale_32_0_pixelshuffler[0][0] 
05/16/2020 11:47:13 VERBOSE  __________________________________________________________________________________________________
05/16/2020 11:47:13 VERBOSE  upscale_64_1_conv2d (Conv2D)    (None, 64, 64, 512)  1180160     upscale_32_1_pixelshuffler[0][0] 
05/16/2020 11:47:13 VERBOSE  __________________________________________________________________________________________________
05/16/2020 11:47:13 VERBOSE  upscale_64_0_leakyrelu (LeakyRe (None, 64, 64, 512)  0           upscale_64_0_conv2d[0][0]        
05/16/2020 11:47:13 VERBOSE  __________________________________________________________________________________________________
05/16/2020 11:47:13 VERBOSE  upscale_64_1_leakyrelu (LeakyRe (None, 64, 64, 512)  0           upscale_64_1_conv2d[0][0]        
05/16/2020 11:47:13 VERBOSE  __________________________________________________________________________________________________
05/16/2020 11:47:13 VERBOSE  upscale_64_0_pixelshuffler (Pix (None, 128, 128, 128 0           upscale_64_0_leakyrelu[0][0]     
05/16/2020 11:47:13 VERBOSE  __________________________________________________________________________________________________
05/16/2020 11:47:13 VERBOSE  upscale_64_1_pixelshuffler (Pix (None, 128, 128, 128 0           upscale_64_1_leakyrelu[0][0]     
05/16/2020 11:47:13 VERBOSE  __________________________________________________________________________________________________
05/16/2020 11:47:13 VERBOSE  face_out (Conv2D)               (None, 128, 128, 3)  9603        upscale_64_0_pixelshuffler[0][0] 
05/16/2020 11:47:13 VERBOSE  __________________________________________________________________________________________________
05/16/2020 11:47:13 VERBOSE  mask_out (Conv2D)               (None, 128, 128, 1)  3201        upscale_64_1_pixelshuffler[0][0] 
05/16/2020 11:47:13 VERBOSE  ==================================================================================================
05/16/2020 11:47:13 VERBOSE  Total params: 30,690,820
05/16/2020 11:47:13 VERBOSE  Trainable params: 30,690,820
05/16/2020 11:47:13 VERBOSE  Non-trainable params: 0
05/16/2020 11:47:13 VERBOSE  __________________________________________________________________________________________________
05/16/2020 11:47:13 VERBOSE  Encoder:
05/16/2020 11:47:13 VERBOSE  _________________________________________________________________
05/16/2020 11:47:13 VERBOSE  Layer (type)                 Output Shape              Param #   
05/16/2020 11:47:13 VERBOSE  =================================================================
05/16/2020 11:47:13 VERBOSE  input_3 (InputLayer)         (None, 128, 128, 3)       0         
05/16/2020 11:47:13 VERBOSE  _________________________________________________________________
05/16/2020 11:47:13 VERBOSE  conv_128_0_conv2d (Conv2D)   (None, 64, 64, 128)       9728      
05/16/2020 11:47:13 VERBOSE  _________________________________________________________________
05/16/2020 11:47:13 VERBOSE  conv_128_0_leakyrelu (LeakyR (None, 64, 64, 128)       0         
05/16/2020 11:47:13 VERBOSE  _________________________________________________________________
05/16/2020 11:47:13 VERBOSE  conv_64_0_conv2d (Conv2D)    (None, 32, 32, 256)       819456    
05/16/2020 11:47:13 VERBOSE  _________________________________________________________________
05/16/2020 11:47:13 VERBOSE  conv_64_0_leakyrelu (LeakyRe (None, 32, 32, 256)       0         
05/16/2020 11:47:13 VERBOSE  _________________________________________________________________
05/16/2020 11:47:13 VERBOSE  conv_32_0_conv2d (Conv2D)    (None, 16, 16, 512)       3277312   
05/16/2020 11:47:13 VERBOSE  _________________________________________________________________
05/16/2020 11:47:13 VERBOSE  conv_32_0_leakyrelu (LeakyRe (None, 16, 16, 512)       0         
05/16/2020 11:47:13 VERBOSE  _________________________________________________________________
05/16/2020 11:47:13 VERBOSE  conv_16_0_conv2d (Conv2D)    (None, 8, 8, 1024)        13108224  
05/16/2020 11:47:13 VERBOSE  _________________________________________________________________
05/16/2020 11:47:13 VERBOSE  conv_16_0_leakyrelu (LeakyRe (None, 8, 8, 1024)        0         
05/16/2020 11:47:13 VERBOSE  _________________________________________________________________
05/16/2020 11:47:13 VERBOSE  flatten_1 (Flatten)          (None, 65536)             0         
05/16/2020 11:47:13 VERBOSE  _________________________________________________________________
05/16/2020 11:47:13 VERBOSE  dense_1 (Dense)              (None, 512)               33554944  
05/16/2020 11:47:13 VERBOSE  _________________________________________________________________
05/16/2020 11:47:13 VERBOSE  dense_2 (Dense)              (None, 32768)             16809984  
05/16/2020 11:47:13 VERBOSE  _________________________________________________________________
05/16/2020 11:47:13 VERBOSE  reshape_1 (Reshape)          (None, 8, 8, 512)         0         
05/16/2020 11:47:13 VERBOSE  _________________________________________________________________
05/16/2020 11:47:13 VERBOSE  upscale_8_0_conv2d (Conv2D)  (None, 8, 8, 2048)        9439232   
05/16/2020 11:47:13 VERBOSE  _________________________________________________________________
05/16/2020 11:47:13 VERBOSE  upscale_8_0_leakyrelu (Leaky (None, 8, 8, 2048)        0         
05/16/2020 11:47:13 VERBOSE  _________________________________________________________________
05/16/2020 11:47:13 VERBOSE  upscale_8_0_pixelshuffler (P (None, 16, 16, 512)       0         
05/16/2020 11:47:13 VERBOSE  =================================================================
05/16/2020 11:47:13 VERBOSE  Total params: 77,018,880
05/16/2020 11:47:13 VERBOSE  Trainable params: 77,018,880
05/16/2020 11:47:13 VERBOSE  Non-trainable params: 0
05/16/2020 11:47:13 VERBOSE  _________________________________________________________________
05/16/2020 11:47:13 VERBOSE  [Dfl_H128 B Summary]:
05/16/2020 11:47:13 VERBOSE  __________________________________________________________________________________________________
05/16/2020 11:47:13 VERBOSE  Layer (type)                    Output Shape         Param #     Connected to                     
05/16/2020 11:47:13 VERBOSE  ==================================================================================================
05/16/2020 11:47:13 VERBOSE  face_in (InputLayer)            (None, 128, 128, 3)  0                                            
05/16/2020 11:47:13 VERBOSE  __________________________________________________________________________________________________
05/16/2020 11:47:13 VERBOSE  mask_in (InputLayer)            (None, 128, 128, 1)  0                                            
05/16/2020 11:47:13 VERBOSE  __________________________________________________________________________________________________
05/16/2020 11:47:13 VERBOSE  lambda_33 (Lambda)              (None, 128, 128, 3)  0           face_in[0][0]                    
05/16/2020 11:47:13 VERBOSE  __________________________________________________________________________________________________
05/16/2020 11:47:13 VERBOSE  lambda_34 (Lambda)              (None, 128, 128, 1)  0           mask_in[0][0]                    
05/16/2020 11:47:13 VERBOSE  __________________________________________________________________________________________________
05/16/2020 11:47:13 VERBOSE  lambda_35 (Lambda)              (None, 128, 128, 3)  0           face_in[0][0]                    
05/16/2020 11:47:13 VERBOSE  __________________________________________________________________________________________________
05/16/2020 11:47:13 VERBOSE  lambda_36 (Lambda)              (None, 128, 128, 1)  0           mask_in[0][0]                    
05/16/2020 11:47:13 VERBOSE  __________________________________________________________________________________________________
05/16/2020 11:47:13 VERBOSE  lambda_37 (Lambda)              (None, 128, 128, 3)  0           face_in[0][0]                    
05/16/2020 11:47:13 VERBOSE  __________________________________________________________________________________________________
05/16/2020 11:47:13 VERBOSE  lambda_38 (Lambda)              (None, 128, 128, 1)  0           mask_in[0][0]                    
05/16/2020 11:47:13 VERBOSE  __________________________________________________________________________________________________
05/16/2020 11:47:13 VERBOSE  lambda_39 (Lambda)              (None, 128, 128, 3)  0           face_in[0][0]                    
05/16/2020 11:47:13 VERBOSE  __________________________________________________________________________________________________
05/16/2020 11:47:13 VERBOSE  lambda_40 (Lambda)              (None, 128, 128, 1)  0           mask_in[0][0]                    
05/16/2020 11:47:13 VERBOSE  __________________________________________________________________________________________________
05/16/2020 11:47:13 VERBOSE  lambda_41 (Lambda)              (None, 128, 128, 3)  0           face_in[0][0]                    
05/16/2020 11:47:13 VERBOSE  __________________________________________________________________________________________________
05/16/2020 11:47:13 VERBOSE  lambda_42 (Lambda)              (None, 128, 128, 1)  0           mask_in[0][0]                    
05/16/2020 11:47:13 VERBOSE  __________________________________________________________________________________________________
05/16/2020 11:47:13 VERBOSE  lambda_43 (Lambda)              (None, 128, 128, 3)  0           face_in[0][0]                    
05/16/2020 11:47:13 VERBOSE  __________________________________________________________________________________________________
05/16/2020 11:47:13 VERBOSE  lambda_44 (Lambda)              (None, 128, 128, 1)  0           mask_in[0][0]                    
05/16/2020 11:47:13 VERBOSE  __________________________________________________________________________________________________
05/16/2020 11:47:13 VERBOSE  lambda_45 (Lambda)              (None, 128, 128, 3)  0           face_in[0][0]                    
05/16/2020 11:47:13 VERBOSE  __________________________________________________________________________________________________
05/16/2020 11:47:13 VERBOSE  lambda_46 (Lambda)              (None, 128, 128, 1)  0           mask_in[0][0]                    
05/16/2020 11:47:13 VERBOSE  __________________________________________________________________________________________________
05/16/2020 11:47:13 VERBOSE  lambda_47 (Lambda)              (None, 128, 128, 3)  0           face_in[0][0]                    
05/16/2020 11:47:13 VERBOSE  __________________________________________________________________________________________________
05/16/2020 11:47:13 VERBOSE  lambda_48 (Lambda)              (None, 128, 128, 1)  0           mask_in[0][0]                    
05/16/2020 11:47:13 VERBOSE  __________________________________________________________________________________________________
05/16/2020 11:47:13 VERBOSE  lambda_49 (Lambda)              (None, 128, 128, 3)  0           face_in[0][0]                    
05/16/2020 11:47:13 VERBOSE  __________________________________________________________________________________________________
05/16/2020 11:47:13 VERBOSE  lambda_50 (Lambda)              (None, 128, 128, 1)  0           mask_in[0][0]                    
05/16/2020 11:47:13 VERBOSE  __________________________________________________________________________________________________
05/16/2020 11:47:13 VERBOSE  lambda_51 (Lambda)              (None, 128, 128, 3)  0           face_in[0][0]                    
05/16/2020 11:47:13 VERBOSE  __________________________________________________________________________________________________
05/16/2020 11:47:13 VERBOSE  lambda_52 (Lambda)              (None, 128, 128, 1)  0           mask_in[0][0]                    
05/16/2020 11:47:13 VERBOSE  __________________________________________________________________________________________________
05/16/2020 11:47:13 VERBOSE  lambda_53 (Lambda)              (None, 128, 128, 3)  0           face_in[0][0]                    
05/16/2020 11:47:13 VERBOSE  __________________________________________________________________________________________________
05/16/2020 11:47:13 VERBOSE  lambda_54 (Lambda)              (None, 128, 128, 1)  0           mask_in[0][0]                    
05/16/2020 11:47:13 VERBOSE  __________________________________________________________________________________________________
05/16/2020 11:47:13 VERBOSE  lambda_55 (Lambda)              (None, 128, 128, 3)  0           face_in[0][0]                    
05/16/2020 11:47:13 VERBOSE  __________________________________________________________________________________________________
05/16/2020 11:47:13 VERBOSE  lambda_56 (Lambda)              (None, 128, 128, 1)  0           mask_in[0][0]                    
05/16/2020 11:47:13 VERBOSE  __________________________________________________________________________________________________
05/16/2020 11:47:13 VERBOSE  lambda_57 (Lambda)              (None, 128, 128, 3)  0           face_in[0][0]                    
05/16/2020 11:47:13 VERBOSE  __________________________________________________________________________________________________
05/16/2020 11:47:13 VERBOSE  lambda_58 (Lambda)              (None, 128, 128, 1)  0           mask_in[0][0]                    
05/16/2020 11:47:13 VERBOSE  __________________________________________________________________________________________________
05/16/2020 11:47:13 VERBOSE  lambda_59 (Lambda)              (None, 128, 128, 3)  0           face_in[0][0]                    
05/16/2020 11:47:13 VERBOSE  __________________________________________________________________________________________________
05/16/2020 11:47:13 VERBOSE  lambda_60 (Lambda)              (None, 128, 128, 1)  0           mask_in[0][0]                    
05/16/2020 11:47:13 VERBOSE  __________________________________________________________________________________________________
05/16/2020 11:47:13 VERBOSE  lambda_61 (Lambda)              (None, 128, 128, 3)  0           face_in[0][0]                    
05/16/2020 11:47:13 VERBOSE  __________________________________________________________________________________________________
05/16/2020 11:47:13 VERBOSE  lambda_62 (Lambda)              (None, 128, 128, 1)  0           mask_in[0][0]                    
05/16/2020 11:47:13 VERBOSE  __________________________________________________________________________________________________
05/16/2020 11:47:13 VERBOSE  lambda_63 (Lambda)              (None, 128, 128, 3)  0           face_in[0][0]                    
05/16/2020 11:47:13 VERBOSE  __________________________________________________________________________________________________
05/16/2020 11:47:13 VERBOSE  lambda_64 (Lambda)              (None, 128, 128, 1)  0           mask_in[0][0]                    
05/16/2020 11:47:13 VERBOSE  __________________________________________________________________________________________________
05/16/2020 11:47:13 VERBOSE  model_6 (Model)                 [(None, 128, 128, 3) 107709700   lambda_33[0][0]                  
05/16/2020 11:47:13 VERBOSE                                                                   lambda_34[0][0]                  
05/16/2020 11:47:13 VERBOSE                                                                   lambda_35[0][0]                  
05/16/2020 11:47:13 VERBOSE                                                                   lambda_36[0][0]                  
…
05/16/2020 11:47:13 VERBOSE  __________________________________________________________________________________________________
05/16/2020 11:47:13 VERBOSE  Decoder_B:
05/16/2020 11:47:13 VERBOSE  __________________________________________________________________________________________________
05/16/2020 11:47:13 VERBOSE  Layer (type)                    Output Shape         Param #     Connected to                     
05/16/2020 11:47:13 VERBOSE  ==================================================================================================
05/16/2020 11:47:13 VERBOSE  input_2 (InputLayer)            (None, 16, 16, 512)  0                                            
05/16/2020 11:47:13 VERBOSE  __________________________________________________________________________________________________
05/16/2020 11:47:13 VERBOSE  upscale_16_2_conv2d (Conv2D)    (None, 16, 16, 2048) 9439232     input_2[0][0]                    
05/16/2020 11:47:13 VERBOSE  __________________________________________________________________________________________________
05/16/2020 11:47:13 VERBOSE  upscale_16_3_conv2d (Conv2D)    (None, 16, 16, 2048) 9439232     input_2[0][0]                    
05/16/2020 11:47:13 VERBOSE  __________________________________________________________________________________________________
05/16/2020 11:47:13 VERBOSE  upscale_16_2_leakyrelu (LeakyRe (None, 16, 16, 2048) 0           upscale_16_2_conv2d[0][0]        
05/16/2020 11:47:13 VERBOSE  __________________________________________________________________________________________________
05/16/2020 11:47:13 VERBOSE  upscale_16_3_leakyrelu (LeakyRe (None, 16, 16, 2048) 0           upscale_16_3_conv2d[0][0]        
05/16/2020 11:47:13 VERBOSE  __________________________________________________________________________________________________
05/16/2020 11:47:13 VERBOSE  upscale_16_2_pixelshuffler (Pix (None, 32, 32, 512)  0           upscale_16_2_leakyrelu[0][0]     
05/16/2020 11:47:13 VERBOSE  __________________________________________________________________________________________________
05/16/2020 11:47:13 VERBOSE  upscale_16_3_pixelshuffler (Pix (None, 32, 32, 512)  0           upscale_16_3_leakyrelu[0][0]     
05/16/2020 11:47:13 VERBOSE  __________________________________________________________________________________________________
05/16/2020 11:47:13 VERBOSE  upscale_32_2_conv2d (Conv2D)    (None, 32, 32, 1024) 4719616     upscale_16_2_pixelshuffler[0][0] 
05/16/2020 11:47:13 VERBOSE  __________________________________________________________________________________________________
05/16/2020 11:47:13 VERBOSE  upscale_32_3_conv2d (Conv2D)    (None, 32, 32, 1024) 4719616     upscale_16_3_pixelshuffler[0][0] 
05/16/2020 11:47:13 VERBOSE  __________________________________________________________________________________________________
05/16/2020 11:47:13 VERBOSE  upscale_32_2_leakyrelu (LeakyRe (None, 32, 32, 1024) 0           upscale_32_2_conv2d[0][0]        
05/16/2020 11:47:13 VERBOSE  __________________________________________________________________________________________________
05/16/2020 11:47:13 VERBOSE  upscale_32_3_leakyrelu (LeakyRe (None, 32, 32, 1024) 0           upscale_32_3_conv2d[0][0]        
05/16/2020 11:47:13 VERBOSE  __________________________________________________________________________________________________
05/16/2020 11:47:13 VERBOSE  upscale_32_2_pixelshuffler (Pix (None, 64, 64, 256)  0           upscale_32_2_leakyrelu[0][0]     
05/16/2020 11:47:13 VERBOSE  __________________________________________________________________________________________________
05/16/2020 11:47:13 VERBOSE  upscale_32_3_pixelshuffler (Pix (None, 64, 64, 256)  0           upscale_32_3_leakyrelu[0][0]     
05/16/2020 11:47:13 VERBOSE  __________________________________________________________________________________________________
05/16/2020 11:47:13 VERBOSE  upscale_64_2_conv2d (Conv2D)    (None, 64, 64, 512)  1180160     upscale_32_2_pixelshuffler[0][0] 
05/16/2020 11:47:13 VERBOSE  __________________________________________________________________________________________________
05/16/2020 11:47:13 VERBOSE  upscale_64_3_conv2d (Conv2D)    (None, 64, 64, 512)  1180160     upscale_32_3_pixelshuffler[0][0] 
05/16/2020 11:47:13 VERBOSE  __________________________________________________________________________________________________
05/16/2020 11:47:13 VERBOSE  upscale_64_2_leakyrelu (LeakyRe (None, 64, 64, 512)  0           upscale_64_2_conv2d[0][0]        
05/16/2020 11:47:13 VERBOSE  __________________________________________________________________________________________________
05/16/2020 11:47:13 VERBOSE  upscale_64_3_leakyrelu (LeakyRe (None, 64, 64, 512)  0           upscale_64_3_conv2d[0][0]        
05/16/2020 11:47:13 VERBOSE  __________________________________________________________________________________________________
05/16/2020 11:47:13 VERBOSE  upscale_64_2_pixelshuffler (Pix (None, 128, 128, 128 0           upscale_64_2_leakyrelu[0][0]     
05/16/2020 11:47:13 VERBOSE  __________________________________________________________________________________________________
05/16/2020 11:47:13 VERBOSE  upscale_64_3_pixelshuffler (Pix (None, 128, 128, 128 0           upscale_64_3_leakyrelu[0][0]     
05/16/2020 11:47:13 VERBOSE  __________________________________________________________________________________________________
05/16/2020 11:47:13 VERBOSE  face_out (Conv2D)               (None, 128, 128, 3)  9603        upscale_64_2_pixelshuffler[0][0] 
05/16/2020 11:47:13 VERBOSE  __________________________________________________________________________________________________
05/16/2020 11:47:13 VERBOSE  mask_out (Conv2D)               (None, 128, 128, 1)  3201        upscale_64_3_pixelshuffler[0][0] 
05/16/2020 11:47:13 VERBOSE  ==================================================================================================
05/16/2020 11:47:13 VERBOSE  Total params: 30,690,820
05/16/2020 11:47:13 VERBOSE  Trainable params: 30,690,820
05/16/2020 11:47:13 VERBOSE  Non-trainable params: 0
05/16/2020 11:47:13 VERBOSE  __________________________________________________________________________________________________
05/16/2020 11:47:13 VERBOSE  Encoder:
05/16/2020 11:47:13 VERBOSE  _________________________________________________________________
05/16/2020 11:47:13 VERBOSE  Layer (type)                 Output Shape              Param #   
05/16/2020 11:47:13 VERBOSE  =================================================================
05/16/2020 11:47:13 VERBOSE  input_3 (InputLayer)         (None, 128, 128, 3)       0         
05/16/2020 11:47:13 VERBOSE  _________________________________________________________________
05/16/2020 11:47:13 VERBOSE  conv_128_0_conv2d (Conv2D)   (None, 64, 64, 128)       9728      
05/16/2020 11:47:13 VERBOSE  _________________________________________________________________
05/16/2020 11:47:13 VERBOSE  conv_128_0_leakyrelu (LeakyR (None, 64, 64, 128)       0         
05/16/2020 11:47:13 VERBOSE  _________________________________________________________________
05/16/2020 11:47:13 VERBOSE  conv_64_0_conv2d (Conv2D)    (None, 32, 32, 256)       819456    
05/16/2020 11:47:13 VERBOSE  _________________________________________________________________
05/16/2020 11:47:13 VERBOSE  conv_64_0_leakyrelu (LeakyRe (None, 32, 32, 256)       0         
05/16/2020 11:47:13 VERBOSE  _________________________________________________________________
05/16/2020 11:47:13 VERBOSE  conv_32_0_conv2d (Conv2D)    (None, 16, 16, 512)       3277312   
05/16/2020 11:47:13 VERBOSE  _________________________________________________________________
05/16/2020 11:47:13 VERBOSE  conv_32_0_leakyrelu (LeakyRe (None, 16, 16, 512)       0         
05/16/2020 11:47:13 VERBOSE  _________________________________________________________________
05/16/2020 11:47:13 VERBOSE  conv_16_0_conv2d (Conv2D)    (None, 8, 8, 1024)        13108224  
05/16/2020 11:47:13 VERBOSE  _________________________________________________________________
05/16/2020 11:47:13 VERBOSE  conv_16_0_leakyrelu (LeakyRe (None, 8, 8, 1024)        0         
05/16/2020 11:47:13 VERBOSE  _________________________________________________________________
05/16/2020 11:47:13 VERBOSE  flatten_1 (Flatten)          (None, 65536)             0         
05/16/2020 11:47:13 VERBOSE  _________________________________________________________________
05/16/2020 11:47:13 VERBOSE  dense_1 (Dense)              (None, 512)               33554944  
05/16/2020 11:47:13 VERBOSE  _________________________________________________________________
05/16/2020 11:47:13 VERBOSE  dense_2 (Dense)              (None, 32768)             16809984  
05/16/2020 11:47:13 VERBOSE  _________________________________________________________________
05/16/2020 11:47:13 VERBOSE  reshape_1 (Reshape)          (None, 8, 8, 512)         0         
05/16/2020 11:47:13 VERBOSE  _________________________________________________________________
05/16/2020 11:47:13 VERBOSE  upscale_8_0_conv2d (Conv2D)  (None, 8, 8, 2048)        9439232   
05/16/2020 11:47:13 VERBOSE  _________________________________________________________________
05/16/2020 11:47:13 VERBOSE  upscale_8_0_leakyrelu (Leaky (None, 8, 8, 2048)        0         
05/16/2020 11:47:13 VERBOSE  _________________________________________________________________
05/16/2020 11:47:13 VERBOSE  upscale_8_0_pixelshuffler (P (None, 16, 16, 512)       0         
05/16/2020 11:47:13 VERBOSE  =================================================================
05/16/2020 11:47:13 VERBOSE  Total params: 77,018,880
05/16/2020 11:47:13 VERBOSE  Trainable params: 77,018,880
05/16/2020 11:47:13 VERBOSE  Non-trainable params: 0
05/16/2020 11:47:13 VERBOSE  _________________________________________________________________
05/16/2020 11:47:13 INFO     Loading Trainer from Original plugin...
…
